melanoma_gwo_ann.pth (torch, 28983 bytes, 4 tensors)

fc1.weight f4 [64, 100]
0	0x3d78f1ea	0.060777582
1	0x3f9e87bc	1.2385173
2	0xbf022e09	-0.50851494
3	0x3d935326	0.07193594
4	0xbf63fb78	-0.89055586
5	0x3ef4840b	0.4775699
6	0x3fa5b83d	1.294685
7	0x3f3f2830	0.74670696
8	0x3f3d7845	0.7401164
9	0xbe01f5e0	-0.1269145
10	0x3d941b8a	0.07231815
11	0xbdebd57f	-0.115153305
12	0xbf13c987	-0.5772938
13	0x40071c82	2.111115
14	0x3ecf4f56	0.40490216
15	0xbf580f91	-0.8439875
16	0xbed2a72b	-0.41143164
17	0x3ef7b321	0.48378852
18	0xbc326f15	-0.010890742
19	0x3f742175	0.9536355
20	0xbf16ecfc	-0.5895536
21	0x3f029012	0.51001084
22	0x3e509b81	0.2037182
23	0x3f479023	0.7795431
24	0x3ed77555	0.42081705
25	0x3e4cfb29	0.20017685
26	0x3f598a52	0.84976685
27	0x3f5ab311	0.85429484
28	0xbdb66fee	-0.08908068
29	0xbefdb2b1	-0.49550393
30	0x3c00b686	0.007856017
31	0x3e513cf1	0.20433404
32	0x3fd2f240	1.6480179
33	0xbde2d361	-0.110754736
34	0xbf321ddf	-0.6957683
35	0x3eec0ec5	0.46105018
36	0xbf90c767	-1.1310853
37	0xbe9bf0a6	-0.30457038
38	0x3eaa1f0e	0.33226818
39	0x3d75bf17	0.05999669
40	0x3fa27a4d	1.2693573
41	0xbee04c97	-0.43808433
42	0xbfbdd810	-1.4831562
43	0x3e1d673f	0.15371417
44	0x3fb70f40	1.4301529
45	0xbe0670b9	-0.13128938
46	0xbe7725e8	-0.24135554
47	0xbf135cc4	-0.57563424
48	0xbecdb3b9	-0.4017618
49	0xbd8bb41e	-0.06821464
50	0xbf483ff3	-0.7822258
51	0xbf2799a9	-0.6546884
52	0x3e9367d4	0.28790152
53	0x3e2c0fb4	0.16802865
54	0x3e616501	0.22011186
55	0xbf503d73	-0.81343764
56	0x3f5bc593	0.8584835
57	0x3f062f5a	0.52416
58	0x3d7818ec	0.060570642
59	0xbdc592f2	-0.09647168
60	0xbecfd503	-0.40592203
61	0x3eadb0bd	0.33923903
62	0x3ebaca5e	0.3648252
63	0xbf04b825	-0.5184348
64	0x3e1cf186	0.15326509
65	0xbdd2b1ab	-0.10287794
66	0xbec3a73f	-0.38213536
67	0xbe9eadfc	-0.30992115
68	0xbf1f7d88	-0.6230092
69	0xbf899bf0	-1.0750713
70	0x3e4be81f	0.19912766
71	0xbf4c8bc3	-0.7990076
72	0x3eb1f3d5	0.34756342
73	0x3da15b6b	0.07878765
74	0xbf083f1b	-0.5322129
75	0xbf9f3b60	-1.2439995
76	0x3f049d9c	0.5180299
77	0xbe1e199c	-0.15439457
78	0x3e9557d1	0.2916856
79	0xbe9691cb	-0.29408106
80	0x3f6e0d6d	0.92989236
81	0x3e8c4c19	0.27401808
82	0x3e456518	0.19276845
83	0xbf54afc9	-0.83080727
84	0xbd2ba5e8	-0.041906267
85	0x3ee48be4	0.44637978
86	0xbf132206	-0.5747379
87	0x3e70f10e	0.23529455
88	0xbefcebad	-0.49398556
89	0x3f250df0	0.6447439
90	0x3ea4f434	0.32217562
91	0x3ea3ae43	0.3196889
92	0xbeea67ba	-0.45782262
93	0x3d7a83af	0.06116074
94	0x3ec92597	0.3928649
95	0xbe87e00c	-0.26538122
96	0xbf3e8fb7	-0.7443804
97	0xbebb202c	-0.36547983
98	0xbe7dd33b	-0.2478761
99	0x3e800600	0.25004578
100	0xbecfb534	-0.40567935
101	0x3c9d7fed	0.019226039
102	0xbf3c08b2	-0.7345077
103	0xbdb55af0	-0.088552356
104	0xbe6e1285	-0.23249252
105	0x3d6d8eea	0.05799762
106	0xbf73dd9c	-0.95260024
107	0xbf23c5c2	-0.6397363
108	0x3d0792f7	0.03309914
109	0x3d352c15	0.044231493
110	0xbf5dc946	-0.86635244
111	0x3eeb01fe	0.45899957
112	0x3f1ff29c	0.6247957
113	0xbee6f31d	-0.45107356
114	0xbf2e1f85	-0.68016845
115	0x3e354bbc	0.17704672
116	0xbf423256	-0.75858057
117	0x3f034021	0.5126973
118	0x3cedda24	0.029034682
119	0x3ead9224	0.3390056
120	0x3e17dc7f	0.14830206
121	0x3f09ff92	0.53905594
122	0x3ef3971d	0.47576228
123	0x3df77c08	0.12084204
124	0x3f680881	0.90637976
125	0x3ec6d506	0.388344
126	0x3e4526c7	0.19253074
127	0x3e56e366	0.20985183
128	0x3e53bf14	0.2067836
129	0x3f633fee	0.88769424
130	0x3e40aa28	0.1881491
131	0xbf1befde	-0.60912883
132	0xbf85d928	-1.0456896
133	0xbe1d9c14	-0.1539157
134	0x3ea56243	0.3230153
135	0xbc3d74f5	-0.011563529
136	0x3f325dd5	0.69674426
137	0xbeb64e8e	-0.35606807
138	0xbf5ce44d	-0.8628586
139	0x3d5529a8	0.05204168
140	0xbf06665d	-0.52499944
141	0xbe1e522b	-0.15461032
142	0x3db76b0f	0.08955967
143	0x3e91fb34	0.28511965
144	0xbea8ae02	-0.32945257
145	0x3eba7c92	0.36423165
146	0x3e891a90	0.26778078
147	0xbce12e2c	-0.027487837
148	0xbe1d2ccf	-0.15349124
149	0x3cc8ba6e	0.02450296
150	0xbf92df91	-1.1474477
151	0x3f7c972b	0.98668164
152	0x3dcc8073	0.09985437
153	0x3e234d29	0.15947403
154	0x3ecb09cc	0.39655912
155	0x3deae3cb	0.11469229
156	0xbeb5f035	-0.35534826
157	0xbc855cbb	-0.016279569
158	0x3e918363	0.28420553
159	0x3f371ef7	0.71531624
160	0xbf311fd1	-0.69189173
161	0xbf12b6d3	-0.5731022
162	0xbee7a397	-0.45241997
163	0xbc930ff3	-0.017951941
164	0x3c626e19	0.013820195
165	0xbf811be0	-1.0086632
166	0xbf02e945	-0.5113719
167	0x3e8e97f8	0.27850318
168	0x3ed66f86	0.4188196
169	0xbe97a2e1	-0.29616454
170	0xbec483b2	-0.38381726
171	0x3eef8dbe	0.46787828
172	0xbebd4966	-0.3697006
173	0xbf0f3b60	-0.55949974
174	0xbfa63078	-1.2983541
175	0x3f4d4909	0.8018957
176	0x3d8cea9a	0.06880684
177	0x3ea63c6f	0.32467982
178	0xbf05e668	-0.523047
179	0xbd05359e	-0.032521836
180	0x3eb6ef66	0.35729522
181	0x3d561824	0.052269116
182	0x3f91fa3e	1.1404493
183	0x3f0fc407	0.5615849
184	0x3dafc60c	0.08582696
185	0xbf8958ad	-1.0730187
186	0xbe120a08	-0.14261639
187	0x3e9976cd	0.2997345
188	0xbf6b4c99	-0.91913754
189	0xbf181043	-0.59399813
190	0xbd56acc2	-0.05241085
191	0x3f04d5fe	0.51889026
192	0x3ea95591	0.33073094
193	0x3f23a355	0.639211
194	0x3d659122	0.056046613
195	0x3f15ae30	0.58468914
196	0x3e7f3a7d	0.24924655
197	0x3e04e26d	0.12977
198	0x3dc35875	0.09538356
199	0x3e15d36e	0.14631435
200	0xbe700426	-0.23439083
201	0xbeeb06f3	-0.4590374
202	0xbfa32e35	-1.2748476
203	0xbfc1dcf6	-1.5145557
204	0xbe42581e	-0.18978927
205	0xbea7a88d	-0.32745782
206	0xbffd4095	-1.9785334
207	0xbf0d37f3	-0.55163497
208	0xbe5cf088	-0.2157613
209	0xbee40ecc	-0.4454254
210	0x3cd2134c	0.025643967
211	0xbe830b4a	-0.2559455
212	0xbe8151e9	-0.25257805
213	0x3f89ed6f	1.0775584
214	0x3e550951	0.20804335
215	0xbe839166	-0.25696868
216	0x3e9d7d9d	0.30759898
217	0x3de18801	0.11012269
218	0xbdf3a61c	-0.11896917
219	0xbf946e59	-1.1596175
220	0xbee75450	-0.45181513
221	0x3e95cb45	0.29256645
222	0xbebd9909	-0.3703082
223	0x3de39547	0.11112457
224	0x3eaea98c	0.3411373
225	0x3e385bb0	0.18003726
226	0x3c71d6be	0.014760671
227	0x3e391d5b	0.18077604
228	0xbec050a4	-0.37561524
229	0x3dadaedc	0.084806174
230	0xbe83c9e3	-0.25739965
231	0x3f22c6fd	0.6358488
232	0xbf2ae56a	-0.6675631
233	0xbe893f67	-0.26806185
234	0xbef4c20f	-0.47804305
235	0x3ea62ad4	0.3245455
236	0x3f228dd8	0.63497686
237	0xbef4b6a0	-0.47795582
238	0xbe839ce2	-0.2570563
239	0x3de40e00	0.11135483
240	0xbd5db59d	-0.054128278
241	0x3e2b2b18	0.16715658
242	0x3f482ea9	0.781962
243	0xbea7256e	-0.32645744
244	0xbe7a2ede	-0.24431941
245	0xbf0afba9	-0.5429025
246	0xbea2fdcc	-0.31834257
247	0x3de90f26	0.113798425
248	0x3ec16107	0.37769338
249	0x3cd58864	0.026066013
250	0x3f6df34e	0.9294938
251	0xbeb56743	-0.35430345
252	0x3d92bb76	0.071646616
253	0x3ef12f7f	0.4710655
254	0xbeeacf4d	-0.45861283
255	0xbec52196	-0.38502187

fc1.bias f4 [64]
0	0x3f6dc565	0.92879325
1	0xc002badd	-2.0426552
2	0xbfdb2d68	-1.7123232
3	0xbfb144a9	-1.3849078
4	0xc0398863	-2.8989494
5	0xbf124ead	-0.571513
6	0x3e672d47	0.22575866
7	0xbfad4bea	-1.3538792
8	0x3f0dc99c	0.55385756
9	0x3f26f1b2	0.6521255
10	0x3ecd0227	0.40040705
11	0xc01a16da	-2.4076447
12	0xbff9742e	-1.948858
13	0xc030e812	-2.7641644
14	0xbfa33c0e	-1.2752702
15	0xc04e2d44	-3.2215128
16	0xc04cb85e	-3.1987529
17	0x3f0759f5	0.5287164
18	0xc01351c3	-2.3018653
19	0x3ef15e53	0.47142276
20	0xbff34123	-1.9004253
21	0x3f76dea6	0.96433485
22	0xc027039a	-2.6095948
23	0xbffd8006	-1.9804695
24	0x3d1527fd	0.03641509
25	0xbf2d2d75	-0.67647487
26	0xbe0daa7b	-0.13834564
27	0xc023f8db	-2.562064
28	0xbff71e6d	-1.930616
29	0xbf267158	-0.650167
30	0xbeeeaabe	-0.4661464
31	0xbfb15816	-1.3855007
32	0xc003ffdc	-2.0624914
33	0x3f5da5ec	0.865813
34	0xc018571e	-2.3803172
35	0x3fada7e4	1.3566861
36	0x3f624d62	0.88399327
37	0xbf098cbf	-0.53730386
38	0xc03da03f	-2.9629056
39	0xc0235fbb	-2.552718
40	0x3ed6fb6c	0.41988695
41	0xbfbf384c	-1.4939055
42	0xbed9b01a	-0.42517167
43	0xbdaa99da	-0.08330126
44	0xbeb7d05e	-0.3590116
45	0x3eb28f2c	0.34874856
46	0x3e782efc	0.24236673
47	0xc0193639	-2.3939345
48	0xc05c892e	-3.4458728
49	0xbf85f28c	-1.0464644
50	0x3e9aad99	0.3021057
51	0xc00289c5	-2.0396588
52	0xbfb88848	-1.441659
53	0xbffabec1	-1.9589463
54	0xbe7df9a6	-0.24802265
55	0xbecff362	-0.40615374
56	0x3ec0a6c6	0.37627238
57	0xbde790b1	-0.113068946
58	0xc00511be	-2.079208
59	0x3dbfbf0b	0.093626104
60	0x3edd69b0	0.43244696
61	0xbf13f34e	-0.5779313
62	0xbe8423f1	-0.2580867
63	0xbfbaab14	-1.4583459

fc2.weight f4 [2, 64]
0	0x3ead82b2	0.33888775
1	0xbe47ce28	-0.19512236
2	0xbe8c8c4a	-0.27450782
3	0xbf2dad90	-0.6784296
4	0xbf11a5f3	-0.56893843
5	0x3f0380b8	0.51368284
6	0xbe890b8f	-0.2676663
7	0x3ecef9ba	0.404249
8	0x3e596a11	0.21231867
9	0xbd59064c	-0.05298452
10	0xbe69dea0	-0.22838831
11	0x3ef6ee60	0.4822874
12	0xbe8f8148	-0.2802832
13	0xbf34068a	-0.7032248
14	0x3da9583c	0.082687825
15	0xbeaf7c4f	-0.34274527
16	0xbe8bba9a	-0.27290803
17	0x3cc3085b	0.023807695
18	0xbf153bc5	-0.58294326
19	0x3f1bddd9	0.6088539
20	0x3e06d7f2	0.13168314
21	0x3e2e3d0c	0.17015475
22	0xbe1dece5	-0.154224
23	0xbefbaed1	-0.49156812
24	0x3e16e201	0.14734651
25	0xbea74712	-0.3267141
26	0xbdb46d69	-0.08809931
27	0xbecca85d	-0.399722
28	0xbe756218	-0.23963201
29	0x3d13f129	0.03611866
30	0xbf0161cb	-0.50539845
31	0xbe4e896d	-0.20169611
32	0xbc8defd9	-0.017326282
33	0x3f061bc0	0.52386093
34	0xbf1994b2	-0.59992516
35	0x3f463acd	0.7743347
36	0x3ed378be	0.41303056
37	0xbe034041	-0.1281748
38	0xbf047974	-0.5174782
39	0x3dfdad43	0.12386563
40	0xbc611b56	-0.013739428
41	0x3e13649c	0.14393848
42	0xbf3703db	-0.7149026
43	0x3eea93f2	0.45815998
44	0x3f87206e	1.0556772
45	0x3ec97f58	0.39354968
46	0x3ec71c6f	0.3888888
47	0xbec7d7fe	-0.39031976
48	0xbf9c7c12	-1.2225363
49	0xbf570aec	-0.8400104
50	0x3e2d4dda	0.1692423
51	0xbe4a120b	-0.19733445
52	0xbe2feb2d	-0.17179556
53	0xbef29602	-0.47380072
54	0x3ddcd6d2	0.10783161
55	0x3de286b0	0.11060846
56	0x3db28975	0.08717624
57	0x3ed05e41	0.4069691
58	0xbf1c43fd	-0.6104124
59	0x3e3dfeec	0.18554276
60	0xbec38085	-0.3818399
61	0x3e8d58bf	0.2760677
62	0x3f21b683	0.63169116
63	0xbe2fda28	-0.17173064
64	0xbdbd695a	-0.0924861
65	0x3ea99e60	0.33128643
66	0x3e36d39d	0.17854162
67	0xbd80eff2	-0.06295766
68	0x3f1944d9	0.5987068
69	0x3e06d543	0.1316729
70	0xbf1e932a	-0.61943305
71	0xbe27774f	-0.16354106
72	0xbe0141bb	-0.1262273
73	0x3e964f72	0.29357487
74	0x3e0b58c8	0.13608086
75	0xbeefded1	-0.46849683
76	0x3e859131	0.26087335
77	0x3ea66cf2	0.32504994
78	0x3f07eec9	0.5309873
79	0x3f3f3ac2	0.7469903
80	0x3f88d6e6	1.0690582
81	0xbe9bf06f	-0.30456874
82	0xbccbe303	-0.024888521
83	0x3e8751f4	0.26429713
84	0x3f407300	0.75175476
85	0xbdf0f784	-0.1176596
86	0x3f083279	0.53202015
87	0x3d96eeaf	0.07369744
88	0xbe9724a4	-0.29520142
89	0x3dc99625	0.09843091
90	0xbf1218a0	-0.57068825
91	0x3ed2fb1a	0.412072
92	0x3ebed18a	0.3726924
93	0xbeef5dc2	-0.4675122
94	0xbd399f51	-0.04531795
95	0x3ea23b8d	0.3168606
96	0x3f258f39	0.64671665
97	0x3e7ceec4	0.24700457
98	0x3db0a934	0.08626023
99	0x3f03bcb3	0.5145981
100	0x3dae700e	0.085174665
101	0xbeee425f	-0.46535012
102	0x3f036345	0.5132335
103	0x3f8310d9	1.0239516
104	0xbed89c71	-0.42306855
105	0x3f35f0c1	0.71070486
106	0xbf8798ed	-1.0593544
107	0x3d95981a	0.07304402
108	0x3f052df7	0.5202326
109	0xbb700d73	-0.003662911
110	0x3d8718a5	0.065964974
111	0x3ea57c03	0.32321176
112	0x3d47cab5	0.0487773
113	0xbebc8416	-0.36819524
114	0xbe451d25	-0.19249399
115	0x3ef5acc6	0.47983378
116	0x3e8adc9c	0.27121437
117	0x3e66af2c	0.2252776
118	0xbe47f46e	-0.19526836
119	0xbe8ab9af	-0.2709479
120	0xbeae5be2	-0.34054476
121	0xbc904de9	-0.017615275
122	0x3c4374a9	0.011929669
123	0xbe5d441d	-0.21608014
124	0xbf385352	-0.72002137
125	0xbe327307	-0.17426692
126	0x3e0ec35f	0.13941716
127	0x3ed5a715	0.41729036

fc2.bias f4 [2]
0	0x3ea0cc72	0.3140598
1	0xbdd648b4	-0.10463086
